…
s":[{"output_type":"execute_result","data":{"text/plain":["torch.Size([1, 7, 768])"]},"metadata":{},"execution_count":8}]},{"cell_type":"code","source":["model"],"metadata":{"colab":{"base_uri":"https://localhost:8080/"},"id":"FlzIa2bTwJ-W","executionInfo":{"status":"ok","timestamp":1706020622825,"user_tz":-540,"elapsed":1,"user":{"displayName":"정지원","userId":"16823124283758121408"}},"outputId":"d4177930-3fc5-4d4e-fe77-71cb74ee47d4"},"execution_count":10,"outputs":[{"output_type":"execute_result","data":{"text/plain":["AlbertModel(\n","  (embeddings): AlbertEmbeddings(\n","    (word_embeddings): Embedding(30000, 128, padding_idx=0)\n","    (position_embeddings): Embedding(512, 128)\n","    (token_type_embeddings): Embedding(2, 128)\n","    (LayerNorm): LayerNorm((128,), eps=1e-12, elementwise_affine=True)\n","    (dropout): Dropout(p=0, inplace=False)\n","  )\n","  (encoder): AlbertTransformer(\n","    (embedding_hidden_mapping_in): Linear(in_features=128, out_features=768, bias=True)\n","    (albert_layer_groups): ModuleList(\n","      (0): AlbertLayerGroup(\n","        (albert_layers): ModuleList(\n","          (0): AlbertLayer(\n","            (full_layer_layer_norm): LayerNorm((768,), eps=1e-12, elementwise_affine=True)\n","            (attention): AlbertAttention(\n","              (query): Linear(in_features=768, out_features=768, bias=True)\n","              (key): Linear(in_features=768, out_features=768, bias=True)\n","              (value): Linear(in_features=768, out_features=768, bias=True)\n","              (attention_dropout): Dropout(p=0, inplace=False)\n","              (output_dropout): Dropout(p=0, inplace=False)\n","              (dense): Linear(in_features=768, out_features=768, bias=True)\n","              (LayerNorm): LayerNorm((768,), eps=1e-12, elementwise_affine=True)\n","            )\n","            (ffn): Linear(in_features=768, out_features=3072, bias=True)\n","            (ffn_output): Linear(in_features=3072, out_features=768, bias=True)\n","            (activation): NewGELUActivation()\n","            (dropout): Dropout(p=0, inplace=False)\n","          )\n","        )\n","      )\n","    )\n","  )\n","  (pooler): Linear(in_features=768, out_features=768, bias=True)\n","  (pooler_activation): Tanh()\n",")"]},"metadata":{},"execution_count":10}]},{"cell_type":"code","source":[],"metadata":{"id":"fcPGwNeFwLdo"},"execution_count":null,"outputs":[]}]}